<bound method Module.named_modules of PeftModelForCausalLM(
  (base_model): LoraModel(
    (model): Gemma2ForCausalLM(
      (model): Gemma2Model(
        (embed_tokens): Embedding(256000, 2304)
        (layers): ModuleList(
          (0-25): 26 x Gemma2DecoderLayer(
            (self_attn): Gemma2Attention(
              (q_proj): lora.Linear(
                (base_layer): Linear(in_features=2304, out_features=2048, bias=False)
                (lora_dropout): ModuleDict(
                  (default): Identity()
                )
                (lora_A): ModuleDict(
                  (default): Linear(in_features=2304, out_features=16, bias=False)
                )
                (lora_B): ModuleDict(
                  (default): Linear(in_features=16, out_features=2048, bias=False)
                )
                (lora_embedding_A): ParameterDict()
                (lora_embedding_B): ParameterDict()
                (lora_magnitude_vector): ModuleDict()
              )
              (k_proj): lora.Linear(
                (base_layer): Linear(in_features=2304, out_features=1024, bias=False)
                (lora_dropout): ModuleDict(
                  (default): Identity()
                )
                (lora_A): ModuleDict(
                  (default): Linear(in_features=2304, out_features=16, bias=False)
                )
                (lora_B): ModuleDict(
                  (default): Linear(in_features=16, out_features=1024, bias=False)
                )
                (lora_embedding_A): ParameterDict()
                (lora_embedding_B): ParameterDict()
                (lora_magnitude_vector): ModuleDict()
              )
              (v_proj): lora.Linear(
                (base_layer): Linear(in_features=2304, out_features=1024, bias=False)
                (lora_dropout): ModuleDict(
                  (default): Identity()
                )
                (lora_A): ModuleDict(
                  (default): Linear(in_features=2304, out_features=16, bias=False)
                )
                (lora_B): ModuleDict(
                  (default): Linear(in_features=16, out_features=1024, bias=False)
                )
                (lora_embedding_A): ParameterDict()
                (lora_embedding_B): ParameterDict()
                (lora_magnitude_vector): ModuleDict()
              )
              (o_proj): lora.Linear(
                (base_layer): Linear(in_features=2048, out_features=2304, bias=False)
                (lora_dropout): ModuleDict(
                  (default): Identity()
                )
                (lora_A): ModuleDict(
                  (default): Linear(in_features=2048, out_features=16, bias=False)
                )
                (lora_B): ModuleDict(
                  (default): Linear(in_features=16, out_features=2304, bias=False)
                )
                (lora_embedding_A): ParameterDict()
                (lora_embedding_B): ParameterDict()
                (lora_magnitude_vector): ModuleDict()
              )
              (rotary_emb): GemmaFixedRotaryEmbedding()
            )
            (mlp): Gemma2MLP(
              (gate_proj): lora.Linear(
                (base_layer): Linear(in_features=2304, out_features=9216, bias=False)
                (lora_dropout): ModuleDict(
                  (default): Identity()
                )
                (lora_A): ModuleDict(
                  (default): Linear(in_features=2304, out_features=16, bias=False)
                )
                (lora_B): ModuleDict(
                  (default): Linear(in_features=16, out_features=9216, bias=False)
                )
                (lora_embedding_A): ParameterDict()
                (lora_embedding_B): ParameterDict()
                (lora_magnitude_vector): ModuleDict()
              )
              (up_proj): lora.Linear(
                (base_layer): Linear(in_features=2304, out_features=9216, bias=False)
                (lora_dropout): ModuleDict(
                  (default): Identity()
                )
                (lora_A): ModuleDict(
                  (default): Linear(in_features=2304, out_features=16, bias=False)
                )
                (lora_B): ModuleDict(
                  (default): Linear(in_features=16, out_features=9216, bias=False)
                )
                (lora_embedding_A): ParameterDict()
                (lora_embedding_B): ParameterDict()
                (lora_magnitude_vector): ModuleDict()
              )
              (down_proj): lora.Linear(
                (base_layer): Linear(in_features=9216, out_features=2304, bias=False)
                (lora_dropout): ModuleDict(
                  (default): Identity()
                )
                (lora_A): ModuleDict(
                  (default): Linear(in_features=9216, out_features=16, bias=False)
                )
                (lora_B): ModuleDict(
                  (default): Linear(in_features=16, out_features=2304, bias=False)
                )
                (lora_embedding_A): ParameterDict()
                (lora_embedding_B): ParameterDict()
                (lora_magnitude_vector): ModuleDict()
              )
              (act_fn): PytorchGELUTanh()
            )
            (input_layernorm): Gemma2RMSNorm((2304,), eps=1e-06)
            (post_attention_layernorm): Gemma2RMSNorm((2304,), eps=1e-06)
            (pre_feedforward_layernorm): Gemma2RMSNorm((2304,), eps=1e-06)
            (post_feedforward_layernorm): Gemma2RMSNorm((2304,), eps=1e-06)
          )
        )
        (norm): Gemma2RMSNorm((2304,), eps=1e-06)
      )
      (lm_head): Linear(in_features=2304, out_features=256000, bias=False)
    )
  )
)>
Training completed in 1421.2591 seconds.
Error in callback <bound method _WandbInit._pause_backend of <wandb.sdk.wandb_init._WandbInit object at 0x7fccc2724fa0>> (for post_run_cell), with arguments args (<ExecutionResult object at 7fccc2724be0, execution_count=2 error_before_exec=None error_in_exec=None info=<ExecutionInfo object at 7fccc272f2b0, raw_cell="#%%
…
