…
AUTOTUNE bmm(32x512x512, 32x512x256)
  bmm 0.1853 ms 100.0%
  triton_bmm_1031 0.5202 ms 35.6%
  triton_bmm_1032 0.6523 ms 28.4%
  triton_bmm_1029 0.7014 ms 26.4%
  triton_bmm_1028 0.7025 ms 26.4%
  triton_bmm_1035 0.7199 ms 25.7%
  triton_bmm_1039 0.7301 ms 25.4%
  triton_bmm_1040 0.7516 ms 24.7%
  triton_bmm_1036 0.7782 ms 23.8%
  triton_bmm_1033 0.7813 ms 23.7%
SingleProcess AUTOTUNE benchmarking takes 26.1210 seconds and 0.0000 seconds precompiling
<bound method Module.named_modules of PeftModelForCausalLM(
  (base_model): LoraModel(
    (model): Gemma2ForCausalLM(
      (model): Gemma2Model(
        (embed_tokens): Embedding(256000, 2304)
        (layers): ModuleList(
          (0-25): 26 x Gemma2DecoderLayer(
            (self_attn): Gemma2Attention(
              (q_proj): Linear(in_features=2304, out_features=2048, bias=False)
              (k_proj): Linear(in_features=2304, out_features=1024, bias=False)
              (v_proj): Linear(in_features=2304, out_features=1024, bias=False)
              (o_proj): Linear(in_features=2048, out_features=2304, bias=False)
              (rotary_emb): GemmaFixedRotaryEmbedding()
            )
            (mlp): Gemma2MLP(
              (gate_proj): lora.Linear(
                (base_layer): Linear(in_features=2304, out_features=9216, bias=False)
                (lora_dropout): ModuleDict(
                  (default): Identity()
                )
                (lora_A): ModuleDict(
                  (default): Linear(in_features=2304, out_features=16, bias=False)
                )
                (lora_B): ModuleDict(
                  (default): Linear(in_features=16, out_features=9216, bias=False)
                )
                (lora_embedding_A): ParameterDict()
                (lora_embedding_B): ParameterDict()
                (lora_magnitude_vector): ModuleDict()
              )
              (up_proj): lora.Linear(
                (base_layer): Linear(in_features=2304, out_features=9216, bias=False)
                (lora_dropout): ModuleDict(
                  (default): Identity()
                )
                (lora_A): ModuleDict(
                  (default): Linear(in_features=2304, out_features=16, bias=False)
                )
                (lora_B): ModuleDict(
                  (default): Linear(in_features=16, out_features=9216, bias=False)
                )
                (lora_embedding_A): ParameterDict()
                (lora_embedding_B): ParameterDict()
                (lora_magnitude_vector): ModuleDict()
              )
              (down_proj): lora.Linear(
                (base_layer): Linear(in_features=9216, out_features=2304, bias=False)
                (lora_dropout): ModuleDict(
                  (default): Identity()
                )
                (lora_A): ModuleDict(
                  (default): Linear(in_features=9216, out_features=16, bias=False)
                )
                (lora_B): ModuleDict(
                  (default): Linear(in_features=16, out_features=2304, bias=False)
                )
                (lora_embedding_A): ParameterDict()
                (lora_embedding_B): ParameterDict()
                (lora_magnitude_vector): ModuleDict()
              )
              (act_fn): PytorchGELUTanh()
            )
            (input_layernorm): Gemma2RMSNorm((2304,), eps=1e-06)
            (post_attention_layernorm): Gemma2RMSNorm((2304,), eps=1e-06)
            (pre_feedforward_layernorm): Gemma2RMSNorm((2304,), eps=1e-06)
            (post_feedforward_layernorm): Gemma2RMSNorm((2304,), eps=1e-06)
          )
        )
        (norm): Gemma2RMSNorm((2304,), eps=1e-06)
      )
      (lm_head): Linear(in_features=2304, out_features=256000, bias=False)
    )
  )
)>
Training completed in 2716.7826 seconds.
Error in callback <bound method _WandbInit._pause_backend of <wandb.sdk.wandb_init._WandbInit object at 0x7f3854821f90>> (for post_run_cell), with arguments args (<ExecutionResult object at 7f3854c8c850, execution_count=3 error_before_exec=None error_in_exec=None info=<ExecutionInfo object at 7f3854c8c730, raw_cell="#%%
…
